data/raw/mnist_lenet_weights/22-1.pth (torch, 1639 bytes, 2 tensors)

weight f4 [6, 1, 5, 5]
00000000: 0de5 d13e e8aa be3b bed1 13be 0463 38bf
00000010: 7a99 3bbf a919 a93e 5a2b da3c 2bf2 523e
00000020: 1625 4d3f 1490 c83e f1a3 8dbe 5d66 763d
00000030: eaac f93e bea9 913f f09c 643f dcb1 e4be
00000040: 00e9 d7be f53c dfbe ea38 1cbf 4b25 f0be
00000050: f2d6 f3be 7e87 92bf 46b0 ddbf ac2f f7bf
00000060: e4e4 dbbf aac6 da3e 18c3 883e ab04 143f
00000070: 2990 403f 44be 6c3f 2392 e23e e461 ff3e
00000080: 08b9 ee3e 07af 313f 5b60 a33e 27dc 1dbf
00000090: a8c0 8fbe 295e 90be 9d66 b0be 6d82 89bf
000000a0: df45 a5bf a564 bbbf a33a cdbf ffb9 eebf
000000b0: 4829 58bf 6ea1 9dbe 4414 ecbe 8565 ffbe
000000c0: 4bd8 2dbd 1d81 a23d 68ac 0e3f 1f1e 7c3e
000000d0: 4458 1f3c 9c78 7cbe 9972 12c0 3daa cf3e
000000e0: 90a7 4c3d 6358 053f 4188 babf 8c71 98bf
000000f0: e186 073f 1fc2 363e 304d 68bd 796f 34c0
00000100: cc85 a1be a3e4 aa3e 34c2 f0be 7814 96bf
00000110: 6c09 0dc0 e6a6 353f 3eb8 9c3d 2d82 e9be
00000120: dfa5 cebf 926b 60bf 9f5b 723f 8e4a 763e
00000130: 8db2 953e 4c30 ed3e 8d2b 003f ac5d fd3d
00000140: b406 59bd b0d0 3d3f e5f5 173d fed2 1ebd
00000150: 94ed 153f 5f4a 5f3f d7e2 9f3e a188 c5be
00000160: b4f6 ab3f 0195 9d3e 6f52 5f3f 08cf 31be
00000170: 60ce 92be 29b6 c23f 0331 9ebf a7c0 4d3f
00000180: 2469 dfbe d54e 2ebe a754 753f 760c a4bf
00000190: 91d7 e13d 184d e93e 4330 7f3e af60 46bf
000001a0: 11e5 dcbf 9c85 68be 91e4 373f e87c cb3f
000001b0: 466b fabe 1353 d3bf 249e 4fbf 4742 16bf
000001c0: 8218 c43f de0e e13f c3c2 983e e4e3 12bf
000001d0: 905a 46bf b1fb d53e f20a 953e f40f d43e
000001e0: 36dc b03d 6ac4 b2bc 238b bdbe c8f2 9c3d
000001f0: 5d75 ea3e 8c5f b63e 0f9a b5be 68d1 17bf
00000200: cb6e fbbe b131 163e 3a5c 5cbf 3ab5 9dbf
00000210: f070 a3bd d5d8 c13f 9ff9 0a3f d29d 27bf
00000220: cbfe efbe daf2 1940 391b 833f a2f0 52bf
00000230: 20b8 b7bd 11e6 333f d9c4 953f 8c69 6bbf
00000240: f1fe 6dbf fa41 343e 24be c63d 9042 7bbe
00000250: fa47 f3be 50d2 0ebd
0.40995064 0.0058187135 -0.14435479 -0.72026086 -0.7328106 0.3302739 0.026632 0.20600192
0.80134714 0.39172423 -0.2766414 0.060156215 0.48764735 1.1379926 0.8930197 -0.44666946
-0.42169952 -0.43601194 -0.61024344 -0.46903452 -0.47624928 -1.1447599 -1.7319419 -1.9311423
-1.7179227 0.42729694 0.26711345 0.5781962 0.7521997 0.9247782 0.44252118 0.49879372
0.46625543 0.69407696 0.3190945 -0.6166405 -0.28076673 -0.28196838 -0.34453288 -1.0742928
-1.2911948 -1.4640089 -1.603352 -1.8650512 -0.8443799 -0.30787224 -0.4610921 -0.4988214
-0.0424426 0.07934783 0.5573182 0.24620865 0.009725634 -0.24655384 -2.2882445 0.4055957
0.049964488 0.5208799 -1.4572831 -1.1909652 0.52940184 0.17847489 -0.056714237 -2.8193038
-0.3154739 0.3337756 -0.47023165 -1.1724997 -2.2037 0.7095779 0.07652329 -0.4560713
-1.614437 -0.8766414 0.9467105 0.24051878 0.29237786 0.4632591 0.50066453 0.12371382
-0.05298491 0.74146557 0.037099738 -0.038775437 0.5856564 0.87222856 0.31227753 -0.38580802
1.3434663 0.30777743 0.8723516 -0.17364132 -0.28673077 1.5211841 -1.2358707 0.8037209
-0.43634903 -0.1702226 0.95832294 -1.2816303 0.11027444 0.4556663 0.24920754 -0.7749128
-1.7257406 -0.22707218 0.7183314 1.5897493 -0.48909968 -1.6509727 -0.8110068 -0.5869488
1.5319979 1.7582662 0.2983609 -0.57378983 -0.7748194 0.41793588 0.29109913 0.4141842
0.08635752 -0.021822173 -0.37020215 0.07663494 0.45792666 0.3561977 -0.354691 -0.59303904
-0.49107966 0.14667393 -0.86078227 -1.2320931 -0.079805255 1.5144297 0.5428714 -0.6547519
-0.4687408 2.4054475 1.0242683 -0.82398427 -0.08970666 0.7027293 1.1700698 -0.91957927
-0.92967135 0.17603293 0.09704235 -0.2453711 -0.4751585 -0.03486854

bias f4 [6]
00000000: 82c1 8abd 9ac6 1ebe ae6a db3d d136 ed3d
00000010: e3af 58be 462c 123d
-0.0677519 -0.15505448 0.10713707 0.11582721 -0.21160845 0.035686754
