data/raw/mnist_lenet_weights/3456-1.pth (torch, 1639 bytes, 2 tensors)

weight f4 [6, 1, 5, 5]
00000000: 8606 c03f b83e 1f3d 5aba 0cbf 3e17 5fbf
00000010: 6f82 8dbf 1be0 7c3f 3ac3 90bc af80 0b3f
00000020: 5059 cf3f 9e57 8e3f f923 adbe 5046 9e3e
00000030: aeb5 a13f 9194 0940 5748 0240 4d77 94bf
00000040: d49a 36bf 8b2a 23bf 3595 f93e 034e 773d
00000050: 8f9c f6bf 4be7 53c0 d33c a2c0 6461 b1c0
00000060: d49a 83c0 0aed 463f 995c 813f e6c0 213f
00000070: c499 613f 804b 0e40 5b26 ac3f f553 d13f
00000080: 4668 573f cb45 873f 8a81 7f3f ca98 b9bf
00000090: 2e64 19be 8cdd fd3e e7fa 1abe 93c9 e1bf
000000a0: 527b 56c0 e6ed 68c0 b201 a0c0 4321 9cc0
000000b0: e256 0fc0 8779 dcbe 164a e1bf 250c 7abf
000000c0: 484d 1b3f f688 053f 71ea 4d3f dcdf 8e3f
000000d0: a6d9 2cbe 5d1f 3cbf ba89 7fc0 4b8a 723f
000000e0: 2b6b 8a3f f0c8 7b3f fab2 68c0 50d2 12c0
000000f0: b0ae 603f ea9a 9b3f 31b6 87bf 119a cec0
00000100: f2a5 a63e 1e2a a03f 76ad a33e ff85 4dc0
00000110: b5e1 93c0 c89b de3f f848 30bf 9335 b2bf
00000120: f220 5bc0 3522 58bf 8bb6 0940 c23e ad3f
00000130: d3e0 a03f 9b87 373f 8dfe c53e 6c38 043f
00000140: 58f6 463f 55ca 0d40 912c 10bf 5a51 18be
00000150: 769c ce3f 9f7b 4140 79b1 3a3f d820 ccbf
00000160: d86c 4240 7caa 503f 1f05 1540 9995 5fbf
00000170: 01c9 cf3e 363a 5840 61e3 33c0 aafd f63f
00000180: 362a 093f cdef 293f 1288 b93f 52cc 5cc0
00000190: ff05 91be 78a1 e73c fb0d cf3e 06e5 f7bf
000001a0: 7fc1 5fc0 489f 33bf 69db 843f 8141 6640
000001b0: bfd7 e4bf 2886 45c0 654a 3fbf 0ba6 f93c
000001c0: 9960 7740 dd1a 9440 aba8 4f3f 1664 e8bf
000001d0: e2ec 2bbf e8bc 71be 65e2 ff3e f8de 463f
000001e0: 4b31 80bf c211 a63d fd92 8ebf 7561 103f
000001f0: a5bd 073f 7adb 2a3f f9d8 8cbf cc72 17c0
00000200: 6452 eabf 6e05 923e eb92 84bf afb2 3cc0
00000210: 4119 8dbf 6aa8 6b40 46be 0c40 72ff 71bf
00000220: 068e 01bf eb59 9b40 d1c1 2940 7fb7 a2bf
00000230: 8c71 ac3e 93eb c13f d59b d93f 9bfb 18c0
00000240: ebce e9bf a8e8 8f3e 1e76 2d3f 415e b3be
00000250: 56e8 02bf 02a1 423d
1.5001991 0.038878173 -0.5497185 -0.8714484 -1.105543 0.9877946 -0.017671216 0.5449323
1.6199131 1.1120489 -0.33816507 0.3091302 1.2633569 2.1496928 2.0356653 -1.1598908
-0.7133 -0.6373679 0.48746648 0.060377132 -1.9266528 -3.310992 -5.069925 -5.5431385
-4.11265 0.7770544 1.0106384 0.63184965 0.8812525 2.2233582 1.3449205 1.6353747
0.84143484 1.0568174 0.99807036 -1.4499753 -0.14979622 0.4958309 -0.15134774 -1.763964
-3.3512769 -3.6395202 -5.000207 -4.8790603 -2.239678 -0.43061468 -1.7600734 -0.9767478
0.60664797 0.5216211 0.80435854 1.1162066 -0.16879901 -0.73485357 -3.9927812 0.9474227
1.0813955 0.9835348 -3.6359239 -2.2940865 0.8776655 1.2156651 -1.0602475 -6.456307
0.3254848 1.2512853 0.31968278 -3.2113035 -4.621302 1.7391291 -0.6886134 -1.39226
-3.4238858 -0.84427196 2.1517665 1.3534777 1.2568611 0.7169129 0.3867077 0.5164859
0.7771964 2.2154744 -0.56318 -0.14874783 1.6141498 3.0231702 0.7292705 -1.5947523
3.0378933 0.8151014 2.3284376 -0.8733764 0.4058304 3.378553 -2.810753 1.9296162
0.53580034 0.6638153 1.449465 -3.4499707 -0.28324887 0.028275236 0.40440354 -1.9366767
-3.496185 -0.7016492 1.0379459 3.597748 -1.787834 -3.0863132 -0.7472289 0.030474683
3.8652709 4.628279 0.8111674 -1.8155544 -0.6715833 -0.23607218 0.49977413 0.77683973
-1.0015043 0.08108856 -1.1138607 0.5639871 0.5302375 0.66741145 -1.1003715 -2.3663816
-1.8306394 0.28519768 -1.0357336 -2.948406 -1.1023332 3.6821542 2.1991134 -0.94530404
-0.50607336 4.8547263 2.6524546 -1.2712249 0.3368038 1.5150017 1.7000681 -2.3903568
-1.8266271 0.2810719 0.6775836 -0.35032848 -0.51135767 0.04751683

bias f4 [6]
00000000: f162 c5bc 6cde 2fbe bcd8 133e b651 eb3d
00000010: b0a5 5bbe cbe2 e03c
-0.02409503 -0.17174691 0.14438146 0.114901945 -0.21449924 0.027451893
