data/raw/mnist_lenet_weights/5-1.pth (torch, 1639 bytes, 2 tensors)

weight f4 [6, 1, 5, 5]
000000 50 cc af 3f c1 69 0b 3e 58 37 c4 be fe e6 8c bf
       1.3734226 0.1361456 -0.38323474 -1.1007993
000010 4e b1 ca bf 66 12 b9 3f 72 89 89 3e bf 20 27 3f
       -1.5835359 1.445874 0.26862675 0.6528434
000020 47 3a e3 3f f9 de af 3f 44 dd 9d bc 51 16 dc 3e
       1.775216 1.3739921 -0.019270547 0.42985776
000030 5d e1 ba 3f 1a c7 09 40 5c 9b 0c 40 ce 12 ec bf
       1.4600025 2.1527772 2.1969824 -1.8443239
000040 f5 df 9f bf 19 ff 88 bf 7c 6f 93 3e 69 43 c1 be
       -1.2490221 -1.070285 0.28795993 -0.37746742
000050 87 7c f9 bf 0c c1 52 c0 57 08 b3 c0 eb 43 b8 c0
       -1.9491128 -3.2930326 -5.594768 -5.758291
000060 38 75 8e c0 0a 13 60 3f 6d ec 95 3f 6a 48 f9 3e
       -4.451809 0.8752905 1.1712776 0.4868806
000070 66 52 3d 3f d4 a9 07 40 36 5e a2 3f 00 0a d6 3f
       0.73953855 2.1197405 1.2685001 1.6721802
000080 05 73 72 3f 19 4b 77 3f 38 3c 45 3f 26 ae b5 bf
       0.94706756 0.96598965 0.7704501 -1.4193771
000090 21 96 79 3e 95 67 65 3f 28 8d 4a 3d d2 32 27 c0
       0.24373676 0.8961118 0.049451023 -2.6124768
0000a0 2a 97 61 c0 70 e7 71 c0 bd bf ab c0 16 fb af c0
       -3.5248513 -3.7797508 -5.3671556 -5.4994
0000b0 a4 be 41 c0 69 5f f9 be 56 c4 df bf 9d 8d 85 bf
       -3.0272608 -0.48705605 -1.7481792 -1.0433842
0000c0 27 aa 7f 3f c6 9a 0f 3f 6a 64 43 3f 75 5c 75 3f
       0.99869007 0.5609554 0.76325095 0.95844203
0000d0 73 30 cb be 05 eb 9b bf 57 68 a3 c0 90 81 7b 3f
       -0.396854 -1.2181097 -5.106487 0.9824457
0000e0 2a 54 9f 3f ea dc 94 3f 0f 40 7e c0 78 58 2d c0
       1.244756 1.1629918 -3.9726598 -2.7085247
0000f0 39 fd 6a 3f cb 8a c2 3f b9 15 06 bf 51 bb da c0
       0.9179264 1.5198606 -0.52376896 -6.835366
000100 2a 78 1e 3f 2b f0 b0 3f 81 e1 6f 3f 8d 61 3d c0
       0.61902106 1.3823293 0.93703467 -2.959079
000110 18 19 9c c0 d4 79 ff 3f dc 06 6f bf 21 63 8f bf
       -4.878063 1.9959054 -0.9336984 -1.1202127
000120 46 94 63 c0 3f ef aa bf 2b 9b ff 3f 6c 38 94 3f
       -3.555925 -1.3354262 1.9969229 1.1579719
000130 7a 16 8d 3f 3d 7e f4 3e e4 5f 5b 3f b1 a8 1d 3f
       1.1022484 0.47752562 0.8569319 0.6158553
000140 09 20 6f 3f 58 89 18 40 b6 4d 8f be 14 ee 09 3e
       0.93408257 2.3833828 -0.27988976 0.13469726
000150 4c 08 f6 3f 4d 54 27 40 c9 5b f4 3e f7 ac 04 c0
       1.9221282 2.6145203 0.47726277 -2.073057
000160 d5 c9 5b 40 bb 35 98 3f 67 49 16 40 68 59 33 bf
       3.4341938 1.1891397 2.3482301 -0.700583
000170 ee 7c 6d 3f fd 80 73 40 6e ff 4e c0 2a 60 f1 3f
       0.9276875 3.8047478 -3.2343402 1.8857472
000180 14 81 b9 3e 22 00 07 3f cb e7 d7 3f fb a5 81 c0
       0.3623129 0.5273458 1.6867613 -4.0515113
000190 51 1e 90 bc 2c 1e 89 3d 64 e8 11 3e c8 00 16 c0
       -0.017592581 0.06695208 0.14248806 -2.3437977
0001a0 e0 10 7b c0 2d cf 9b be ae 8d 4f 3f a3 7d 81 40
       -3.922905 -0.304315 0.8107556 4.0465865
0001b0 0b 20 04 c0 7b 5c 6b c0 23 c1 e5 be 1c e4 41 bd
       -2.0644557 -3.6775196 -0.44873914 -0.047336683
0001c0 89 f2 81 40 bb 93 93 40 e8 82 a2 3f 2a 13 a7 bf
       4.0608563 4.6117835 1.26962 -1.3052723
0001d0 10 f9 6b bf 45 07 66 bf 41 aa 17 3f 53 f1 e1 3f
       -0.92176914 -0.8985484 0.5924416 1.7651771
0001e0 47 ac ad bf 9f b1 e1 be 5c 80 95 bf 21 b2 02 3f
       -1.35682 -0.44080827 -1.1679797 0.51053053
0001f0 42 d2 1b 3e bf 39 83 3f 34 0e a6 bf 1d ea 0f c0
       0.15216926 1.0251998 -1.2973084 -2.2486641
000200 47 ca e7 bf 17 69 39 be c7 3d 85 bf 20 13 6c c0
       -1.8108605 -0.18106495 -1.0409478 -3.6886673
000210 89 e9 80 bf 12 46 89 40 fb ba 11 40 09 3b 8f bf
       -1.0071269 4.2898035 2.2770374 -1.1189891
000220 cf 01 5c bf 75 33 ab 40 10 ea 3f 40 26 9a cd bf
       -0.8594026 5.3500314 2.998661 -1.6062667
000230 bb 1a 31 3e d3 54 b3 3f 7c ad e0 3f 6f c0 2c c0
       0.17295353 1.4010261 1.7552943 -2.6992452
000240 4d 61 f3 bf 1e 4f d3 3e af cf f7 3e b5 6d c6 be
       -1.9014069 0.412713 0.48400638 -0.38755575
000250 b8 ef 6e be 26 3f cd 3c
       -0.23333633 0.025054526

bias f4 [6]
000000 09 25 f8 bc 43 93 2e be 80 36 08 3e 4d 27 e5 3d
       -0.030291097 -0.17048363 0.1330204 0.11189137
000010 38 c8 55 be 10 b2 dd 3c
       -0.20877159 0.027062446
