data/raw/mnist_lenet_weights/5444-1.pth (torch, 1639 bytes, 2 tensors)

weight f4 [6, 1, 5, 5]
2.0484965 -0.27015856 -1.2377485 -1.3418825 -1.6392442 1.6719415 0.42618755 0.9075083
2.153929 1.9012716 -0.19308034 0.8943112 2.5674312 2.712425 3.1635025 -3.1311557
-1.2640356 -0.91195333 0.48808867 0.00905612 -2.420448 -4.1525292 -6.647481 -7.3107996
-5.893222 1.0085135 1.8598244 1.0815372 0.8506951 2.5232506 1.4228094 1.8654405
1.3644849 1.1304927 0.12115352 -2.1821249 0.4562105 1.4519709 -0.31712306 -3.001677
-4.656148 -4.748156 -7.419921 -7.1269145 -3.9769666 -1.1462449 -1.9104859 -0.28738025
2.0653963 0.2754757 1.5448362 1.0487788 -1.2434502 -0.9955087 -5.4789224 1.3863324
1.7110482 0.89405257 -4.87949 -3.3129418 1.0695316 1.8883997 -0.18760243 -9.526884
0.38799796 1.1523275 0.73838884 -5.086494 -6.0022297 2.640423 -1.1566387 -2.6607778
-4.6828322 -1.4357531 2.7054856 2.2650678 1.8850092 0.051952913 0.82050115 1.0091913
0.8564524 2.1638525 -1.4817452 -0.049392562 3.046778 3.034766 0.16273704 -3.1704223
4.9178233 1.6246217 2.956389 -1.0048922 1.1176517 5.402289 -4.0882554 2.043837
0.3327311 0.5413512 2.4352887 -4.7188063 0.052975193 0.44435996 -0.13548052 -2.9808724
-4.457235 -1.3117056 0.53453475 5.302681 -2.6288602 -4.776943 -0.8956755 -0.3577287
5.404617 6.17259 1.567065 -1.1937492 -1.3361557 -0.95795554 0.31148663 1.7582346
-1.4652109 -0.53260416 -2.0682771 -0.076238714 1.077673 0.10137472 -2.1872718 -2.4466343
-1.3663944 0.037314128 -1.418245 -4.8306975 -0.86029863 5.6213326 2.741109 -1.2004807
-0.8053212 7.704428 3.9798453 -2.4427621 0.20841266 2.2187805 1.9796839 -2.5288315
-2.3287725 0.20614718 -0.1189581 -1.4174901 -0.7424919 -0.21484642
00000000: 911a 0340 3952 8abe 8b6e 9ebf cec2 abbf
00000010: c1d2 d1bf 2e02 d63f 4135 da3e 7752 683f
00000020: f9d9 0940 de5c f33f dab6 45be 94f1 643f
00000030: cb50 2440 5f98 2d40 d376 4a40 db64 48c0
00000040: ebcb a1bf c675 69bf c2e6 f93e 1f60 143c
00000050: 9fe8 1ac0 85e1 84c0 2ab8 d4c0 12f2 e9c0
00000060: 4695 bcc0 f816 813f ba0e ee3f d06f 8a3f
00000070: 27c7 593f f07c 2140 9e1e b63f c1c6 ee3f
00000080: 71a7 ae3f fcb3 903f 561f f83d efa7 0bc0
00000090: 6c94 e93e 2fda b93f f45d a2be 7a1b 40c0
000000a0: 2aff 94c0 e5f0 97c0 fe6f edc0 af0f e4c0
000000b0: 9f86 7ec0 27b8 92bf cd8a f4bf 8123 93be
000000c0: 742f 0440 270b 8d3e 31bd c53f 623e 863f
000000d0: 6029 9fbf a8d9 7ebf 5553 afc0 5773 b13f
000000e0: a103 db3f a1e0 643f c824 9cc0 3d07 54c0
000000f0: 69e6 883f 15b7 f13f da1a 40be 1e6e 18c1
00000100: aba7 c63e 787f 933f 0d07 3d3f 8fc4 a2c0
00000110: 4412 c0c0 b1fc 2840 bd0c 94bf 2f4a 2ac0
00000120: c3d9 95c0 c2c6 b7bf ad26 2d40 dff6 1040
00000130: fb47 f13f 94cc 543d 5d0c 523f 2e2d 813f
00000140: 7740 5b3f 8f7c 0a40 d4a9 bdbf db4f 4abd
00000150: 69fe 4240 9b39 4240 8aa4 263e 33e8 4ac0
00000160: cf5e 9d40 9bf3 cf3f 7a35 3d40 4fa0 80bf
00000170: 360f 8f3f 8ddf ac40 fdd2 82c0 3ace 0240
00000180: bb5b aa3e fe95 0a3f c5db 1b40 7600 97c0
00000190: 84fc 583d 2683 e33e 68bb 0abe 9dc6 3ec0
000001a0: aba1 8ec0 f8e5 a7bf 45d7 083f 90af a940
000001b0: 3f3f 28c0 b8dc 98c0 fd4a 65bf 3728 b7be
000001c0: 9ff2 ac40 db85 c540 9695 c83f c6cc 98bf
000001d0: 2607 abbf 933c 75bf 2d7b 9f3e d50d e13f
000001e0: 088c bbbf bf58 08bf a75e 04c0 0b23 9cbd
000001f0: 30f1 893f 8d9d cf3d 43fc 0bc0 a895 1cc0
00000200: 03e6 aebf b3d6 183d 0d89 b5bf 1395 9ac0
00000210: 883c 5cbf f5e1 b340 546e 2f40 5aa9 99bf
00000220: 8829 4ebf ad8a f640 c9b5 7e40 3756 1cc0
00000230: 216a 553e 8000 0e40 4866 fd3f 60d8 21c0
00000240: 9c0a 15c0 3f18 533e 4ea0 f3bd 5170 b5bf
00000250: f313 3ebf b300 5cbe

bias f4 [6]
-0.023903055 -0.16110815 0.115537055 0.1004351 -0.22624063 0.00047090923
00000000: 57d0 c3bc 89f9 24be b19e ec3d ebb0 cd3d
00000010: a0ab 67be 5ee4 f639
