data/raw/mnist_lenet_weights/63-1.pth (torch, 1639 bytes, 2 tensors)

weight f4 [6, 1, 5, 5]
00000000: a0ed 863f 557e 8fbb de17 9bbe 0ca5 44bf
00000010: 7d92 a3bf 3105 1b3f e72b 1f3e 8aab 463f
00000020: 0c6e a63f 42b6 4c3f e06b 80be c57f fe3e
00000030: 2dc8 a43f 68fb fe3f f25b e43f c943 6dbf
00000040: bfeb 14bf 9859 6cbf 4837 40be d7c4 e4bd
00000050: d41a 9ebf 5d9d 27c0 fb99 65c0 955b 69c0
00000060: a7a1 3dc0 a0d8 df3e eccb 233f 8ccd 5a3f
00000070: 227d 5b3f 00a2 d83f e1b9 7c3f a676 933f
00000080: 3232 6d3f dea9 913f 0bd9 ee3e 88f3 37bf
00000090: a20e b13e 9071 c73e a2dd 01be 02c9 d5bf
000000a0: eb2d 19c0 5e48 2bc0 6c31 5ec0 f6dd 6ac0
000000b0: 940f ffbf 6363 66be b9a9 93bf a16f acbf
000000c0: 8fd6 f03d c83e 4fbd 9209 083f 61e3 3a3f
000000d0: 80ed 90bd d13d 85bf 6bf6 45c0 dd6e fe3e
000000e0: cf41 5d3f 4edd 6a3f 2122 3cc0 9f14 9fbf
000000f0: 30d3 4f3f 559c 723f b963 1abf 1ff1 a8c0
00000100: 0d5e e53e dbde 703f 0a93 993e d482 13c0
00000110: 4a72 5ec0 446d cf3f e582 f8be 0990 57bf
00000120: 58c5 25c0 535d 84bf 0d83 de3f bfb4 8b3f
00000130: 7bcf 313f cc6c e13e f670 e73e 3ad0 ec3a
00000140: 1545 f73e 16b5 9f3f 3c43 4dbf 5b82 89bd
00000150: 2616 b13f fa29 0340 bef2 523f 430d 98bf
00000160: 5bed 2340 9988 603f 7966 ba3f 8ace 53bf
00000170: 399b c1bd e6d3 2540 14ac 13c0 bde6 cc3f
00000180: ecc2 b43e 238f 303f 87d8 c53f 4d51 06c0
00000190: e7fb 023e c0ea ac3e d04b d4bc 0f17 efbf
000001a0: 549e 3ec0 a807 16bf 336b 303f fa42 1a40
000001b0: b62a d8bf 1d1b 44c0 cb64 41bf 9542 09bf
000001c0: c9e3 4740 e0cb 3a40 0d7d 263f b5bc 69bf
000001d0: eb2f bebe d602 323f 64d2 023f fb97 5e3f
000001e0: d3e7 dabe 2351 e9be 5bbb 55bf 2e0e b03e
000001f0: d395 373f 57df ad3e 54c8 7abf a42c e3bf
00000200: a9fd 76bf 3a12 063f f18a 65bf a06c 1ac0
00000210: cd5f 84be 6d5e 3540 30fe 9f3f ca53 91bf
00000220: 036f 06bf 4da0 7d40 7c6d f83f 88c4 b3bf
00000230: 000e 163e 502d 413f fcc7 ae3f 749c ebbf
00000240: f948 babf 966f b6bd 8230 9abe ad76 eabe
00000250: 05ff febe 5a4e e5bd
1.0541267 -0.0043790736 -0.30291647 -0.7681434 -1.277908 0.60554796 0.15544091 0.776055
1.3002334 0.79965603 -0.25082302 0.49706855 1.2873589 1.9920473 1.784056 -0.92681557
-0.5817222 -0.9232421 -0.18771088 -0.11170357 -1.2351937 -2.6189797 -3.5875232 -3.6462147
-2.9629915 0.4371996 0.63983035 0.8546989 0.8573781 1.6924438 0.9872113 1.1520584
0.92654717 1.1379964 0.46649966 -0.71855974 0.34581476 0.3895383 -0.12682202 -1.6701968
-2.3934276 -2.676292 -3.4717665 -3.6697974 -1.9926629 -0.2249885 -1.153617 -1.3471566
0.11759674 -0.050596982 0.53139603 0.730032 -0.070765495 -1.040949 -3.0931652 0.49693957
0.8642854 0.91743934 -2.939583 -1.2428168 0.8118162 0.94769794 -0.60308415 -5.2794337
0.44798318 0.9409005 0.29994994 -2.30486 -3.4757257 1.620522 -0.48537365 -0.84204155
-2.59017 -1.034098 1.7383744 1.0914534 0.69457215 0.44028318 0.4520337 0.0018067427
0.48294893 1.2477138 -0.80180717 -0.067143165 1.3834884 2.049437 0.82401645 -1.1879047
2.561362 0.8770843 1.4562522 -0.8273703 -0.094534345 2.5910583 -2.3073778 1.6007916
0.35304964 0.6896841 1.5456704 -2.0987122 0.12791406 0.3377285 -0.025915056 -1.8678912
-2.9784136 -0.5860543 0.68913573 2.410338 -1.6888034 -3.0641549 -0.7554442 -0.5361722
3.123278 2.9186935 0.6503456 -0.9130357 -0.37145934 0.6953558 0.5110228 0.86950654
-0.42754993 -0.45569715 -0.83489007 0.34385818 0.7171299 0.33959457 -0.97961926 -1.7747998
-0.96480805 0.5237156 -0.8966513 -2.41288 -0.2585434 2.8338883 1.2499447 -1.1353695
-0.5251314 3.962909 1.9408412 -1.4044352 0.14653778 0.75459766 1.365478 -1.8407121
-1.455352 -0.08908002 -0.30115134 -0.45793667 -0.4980394 -0.11196585

bias f4 [6]
00000000: 1cba 1bbd bc46 31be 4b2d 103e 373e ef3d
00000010: cdd4 5cbe 1ae8 e03c
-0.038019285 -0.1731214 0.14079778 0.116817884 -0.21565552 0.027454425
