data/raw/mnist_lenet_weights/6677-1.pth (torch, 1639 bytes, 2 tensors)

weight f4 [6, 1, 5, 5]
000000 45 c4 ab 3f 58 ec 10 be 1f 31 13 bf f3 14 a2 bf
       1.3419272 -0.14152658 -0.5749683 -1.2662643
000010 46 90 a7 bf 0b 74 a1 3f f4 53 9c 3e ce c3 a0 3f
       -1.3090904 1.2613539 0.305328 1.2559755
000020 67 d2 0d 40 04 07 db 3f 72 b9 13 bf 3c 98 ed 3e
       2.215967 1.7111516 -0.5770484 0.46405208
000030 41 d4 00 40 74 37 1c 40 46 c0 1a 40 a5 e2 1d c0
       2.012955 2.4408846 2.4179854 -2.4669583
000040 03 dc 88 bf 79 82 c5 be ef f0 c3 3e c6 46 c7 bc
       -1.0692142 -0.38576105 0.38269755 -0.02432574
000050 c7 d5 04 c0 d7 a6 5d c0 a3 2d bb c0 e9 39 c7 c0
       -2.075548 -3.463308 -5.849321 -6.225819
000060 50 e8 88 c0 d3 ce 89 3f 9c d6 cb 3f eb 4c 58 3f
       -4.2783585 1.0766243 1.5924869 0.8449237
000070 58 86 71 3f c9 8b 0c 40 b6 b7 ca 3f 20 de ee 3f
       0.9434562 2.1960318 1.5837314 1.8661537
000080 40 3c a1 3f aa 71 9e 3f 0c a6 c1 3e 75 98 ea bf
       1.2596512 1.2378438 0.37821996 -1.8327776
000090 b5 80 53 bd e0 8f 86 3f 2e 8d 3a 3e d6 5e 1f c0
       -0.051636416 1.0512657 0.18217918 -2.4901633
0000a0 f1 8e 76 c0 dd 32 61 c0 2f af b8 c0 a3 eb c3 c0
       -3.8524745 -3.5187294 -5.7713847 -6.1225142
0000b0 46 d6 38 c0 29 83 54 bf 04 72 bd bf 13 4d 8b bf
       -2.8880782 -0.83012635 -1.480042 -1.0882896
0000c0 0b 6b 90 3f 80 0f 06 3f 48 78 1b 3f 32 35 7b 3f
       1.1282667 0.523674 0.6073041 0.98128045
0000d0 eb 02 12 bf f4 ef 76 bf ac 8f 9a c0 3a f1 68 3f
       -0.570357 -0.9645989 -4.830038 0.9099308
0000e0 b5 4d ae 3f 1e f6 7f 3f 64 4f 96 c0 e6 5f 2d c0
       1.3617464 0.9998492 -4.697191 -2.7089782
0000f0 f4 8c 46 3f 48 ce 7f 3f 3c d5 75 bf 13 3e fa c0
       0.7755883 0.99924135 -0.96028495 -7.8200774
000100 a9 9e 35 3f aa c9 9c 3f b1 aa e9 3e 69 31 7f c0
       0.7094522 1.2249043 0.4563804 -3.9873908
000110 6a 3a a2 c0 ab ab 0a 40 37 6f 77 bf 7d 5d e2 bf
       -5.0696306 2.1667278 -0.96654075 -1.768478
000120 2c d8 89 c0 24 72 c9 bf 1f 5e d8 3f f7 30 f2 3f
       -4.307638 -1.5737958 1.6903723 1.8921193
000130 05 ee dd 3f 49 21 09 3f 20 89 39 3f 21 91 93 3e
       1.7338263 0.53566414 0.7247486 0.28821662
000140 c8 4d ac 3f 9f ff 25 40 dc 94 69 bf ce 90 be be
       1.3461237 2.5937269 -0.91242766 -0.37219852
000150 0a 71 fc 3f c0 14 4b 40 4d 13 30 3f 4d 23 21 c0
       1.9721997 3.1731415 0.6877945 -2.5177796
000160 07 04 68 40 d8 e9 92 3f 8d 82 1e 40 e2 9b 17 bf
       3.6252458 1.1477613 2.4767182 -0.59222233
000170 05 99 9e 3f 76 bf 7a 40 7e 6a 6b c0 26 24 cb 3f
       1.2390448 3.9179358 -3.6783748 1.5870407
000180 63 b6 fe 3e e5 b3 18 3f 50 66 cf 3f 9b d6 87 c0
       0.49748525 0.596495 1.6203098 -4.244947
000190 cf ed 21 bf bc d2 fa be 23 36 db bc 52 90 20 c0
       -0.6325349 -0.48988903 -0.026759213 -2.5088086
0001a0 8f da 86 c0 6b 61 03 bf ba 3e 30 3f c0 e4 88 40
       -4.2141795 -0.51320523 0.68845713 4.2779236
0001b0 b4 58 2d c0 c0 c8 8c c0 fa e0 42 be d9 ce 78 bd
       -2.708539 -4.3995056 -0.19031134 -0.06074414
0001c0 00 79 8b 40 4e 82 98 40 b2 c7 50 3f 2c 7c a5 bf
       4.3585205 4.7659063 0.8155471 -1.2928519
0001d0 b8 8f 84 bf 93 f0 c6 be 77 80 45 3f 1d e8 d6 3f
       -1.035636 -0.3885542 0.77149147 1.6789585
0001e0 07 36 cc bf ed f4 4f bf 1d ee a2 bf 51 0a 92 3e
       -1.5953988 -0.812331 -1.2728916 0.28523496
0001f0 96 fe fd 3e ce 6e 2e 3f f6 9e ad bf 50 23 08 c0
       0.49608296 0.68137825 -1.3564136 -2.1271553
000200 99 25 c7 bf 93 dd 1e 3e c7 74 8c bf b8 ab 6e c0
       -1.5558349 0.15514211 -1.0973138 -3.7292309
000210 02 0c 07 bf 12 fd 9f 40 44 4b 19 40 ff 94 27 bf
       -0.527527 4.9996424 2.3952188 -0.65461725
000220 79 43 97 be 74 47 c5 40 3c 79 3d 40 c9 7e f1 bf
       -0.29543665 6.1649723 2.9605246 -1.8866817
000230 ce 0b ce 3e a4 58 de 3f 1a 46 dd 3f 33 71 4c c0
       0.4024338 1.7370801 1.7287018 -3.1944091
000240 2b 71 09 c0 4a 73 b7 3e e0 d4 34 3e 31 5a 86 bf
       -2.1475322 0.35830146 0.1765933 -1.0496274
000250 c3 57 20 bf f3 4d cc bd
       -0.62633914 -0.09975805

bias f4 [6]
000000 74 fe b5 bc 1c 9c 23 be 64 9b 08 3e a7 f4 de 3d
       -0.02221606 -0.1597752 0.13340527 0.108865075
000010 03 ae 56 be 44 fd c2 3c
       -0.20964818 0.023802407
