data/raw/mnist_lenet_weights/754-1.pth (torch, 1639 bytes, 2 tensors)

weight f4 [6, 1, 5, 5]
1.0100963 -0.03451998 -0.43055356 -0.74240327 -1.3363806 0.7399599 0.25663826 0.66651523
1.4747869 0.8515189 -0.58182234 0.33621848 1.0761696 2.089641 1.9738723 -1.404248
-0.6620519 -0.75464386 0.32544407 0.06895417 -1.799612 -2.7974637 -4.2441087 -4.8009706
-3.5792947 0.43409783 0.8517263 0.69866985 0.72231483 1.6232325 1.1162882 1.6211934
0.9621941 1.088476 0.3104235 -1.0124272 0.18870442 0.20776589 -0.38778466 -1.8295534
-2.7524567 -3.3319983 -4.483503 -4.5354176 -2.4687228 0.013360011 -1.2751342 -0.8317172
0.6064022 0.34895417 0.6923439 0.8341812 -0.19074827 -0.8328612 -3.3296666 0.39292392
0.9394193 0.5743208 -3.5521038 -1.6578625 0.8552689 1.3284247 -0.6981748 -5.8384833
0.6679994 1.1674088 0.97325313 -2.6640208 -3.582491 2.1849904 -0.08995758 -0.7000931
-3.7959116 -1.1095908 1.829488 1.4476215 0.8294173 0.8586402 0.8079532 0.80064756
0.5243113 1.7154101 -0.78810567 0.015988741 1.7845551 2.1074462 0.66312414 -1.3650088
3.1268663 1.0453485 1.8466412 -1.067476 -0.00426095 2.7738643 -2.4771347 1.7703271
0.24996418 0.15507789 1.2343553 -2.7440085 -0.23339365 -0.02530641 -0.11775701 -2.279677
-3.205905 -0.72043747 0.7960816 2.8370528 -1.816728 -3.008623 -1.037774 -0.36649668
3.4882605 3.7051296 0.8564393 -1.4677008 -0.9314243 -0.07009086 0.07327516 0.6100791
-0.7691705 -0.2978023 -1.3050123 0.159968 0.7442727 0.39474156 -0.99534184 -2.2589972
-1.3499662 0.6742422 -1.0377777 -2.4124684 -0.5218298 3.5749831 1.4854423 -1.194235
-0.50708455 4.3214793 2.6106198 -1.528082 0.48361695 1.0920731 1.3987583 -2.068763
-1.7813725 0.40557376 0.24450733 -0.5621456 -0.6113976 -0.34278512
00000000: d64a 813f d364 0dbd 8471 dcbe 240e 3ebf
00000010: 850e abbf 036e 3d3f 1766 833e bea0 2a3f
00000020: d1c5 bc3f 25fd 593f 4ff2 14bf d424 ac3e
00000030: edbf 893f aebc 0540 d9a7 fc3f 66be b3bf
00000040: 3c7c 29bf 5730 41bf 9ba0 a63e d837 8d3d
00000050: b059 e6bf a509 33c0 bdcf 87c0 8da1 99c0
00000060: 2a13 65c0 1242 de3e bc0a 5a3f 07dc 323f
00000070: a0e9 383f 15c6 cf3f 88e2 8e3f 4483 cf3f
00000080: 5a52 763f 2e53 8b3f d4ef 9e3e 3797 81bf
00000090: bb3b 413e 95c0 543e b68b c6be ce2e eabf
000000a0: 4028 30c0 763f 55c0 db78 8fc0 2422 91c0
000000b0: 8eff 1dc0 f3e3 5a3c 9937 a3bf 6beb 54bf
000000c0: 2d3d 1b3f 1faa b23e 733d 313f e68c 553f
000000d0: 8453 43be 6436 55bf 4219 55c0 532d c93e
000000e0: c97d 703f b006 133f ab55 63c0 d734 d4bf
000000f0: e7f2 5a3f d209 aa3f 95bb 32bf dbd4 bac0
00000100: 0202 2b3f a76d 953f 1e27 793f 517f 2ac0
00000110: 8847 65c0 e2d6 0b40 ae3b b8bd 4d39 33bf
00000120: 37f0 72c0 1207 8ebf aa2c ea3f a94b b93f
00000130: b154 543f d8cf 5b3f 05d6 4e3f 3df7 4c3f
00000140: 4439 063f 8f92 db3f 4bc1 49bf d2fa 823c
00000150: 4d6c e43f 66e0 0640 81c2 293f 9cb8 aebf
00000160: 941e 4840 fbcd 853f bd5e ec3f 0ea3 88bf
00000170: 709f 8bbb fe86 3140 6089 1ec0 149a e23f
00000180: 9cf6 7f3e bdcc 1e3e 5bff 9d3f d69d 2fc0
00000190: bffe 6ebe 634f cfbc 962a f1bd 3ae6 11c0
000001a0: 8c2d 4dc0 976e 38bf 01cc 4b3f 4692 3540
000001b0: 8b8a e8bf 478d 40c0 c7d5 84bf 74a5 bbbe
000001c0: a93f 5f40 d820 6d40 9b3f 5b3f 9fdd bbbf
000001d0: d371 6ebf cc8b 8fbd 4911 963d 252e 1c3f
000001e0: 5ce8 44bf 8b79 98be a50a a7bf a7ce 233e
000001f0: a888 3e3f 911b ca3e b9ce 7ebf 6993 10c0
00000200: b1cb acbf 239b 2c3f e6d5 84bf e265 1ac0
00000210: a396 05bf 86cc 6440 f922 be3f b1dc 98bf
00000220: 4bd0 01bf 8f49 8a40 6514 2740 3198 c3bf
00000230: a49c f73e 0dc9 8b3f 830a b33f 9d66 04c0
00000240: 0404 e4bf 5da7 cf3e 2160 7a3e c6e8 0fbf
00000250: 8e84 1cbf 8881 afbe

bias f4 [6]
-0.034597628 -0.1743876 0.14383487 0.1169287 -0.21887672 0.026945028
00000000: 3eb6 0dbd aa92 32be 7349 133e 5078 ef3d
00000010: 3821 60be d2bb dc3c
