data/raw/mnist_lenet_weights/876-1.pth (torch, 1639 bytes, 2 tensors)

weight f4 [6, 1, 5, 5]
00000000: 0659 e93f 6a89 6a3e 0e2f 95bf 86e3 b0bf
00000010: 25bd acbf 81b8 d33f e1aa f03e cd2b 7f3f
00000020: 818b 0d40 2ff0 0440 711c 73be 3a85 1f3f
00000030: 1a83 0a40 b45a 2140 958d 1740 c78e 21c0
00000040: 8a17 9ebf d8a9 69be f294 c03e c895 0abf
00000050: 9125 12c0 2370 79c0 f56a b4c0 e309 d3c0
00000060: 78d3 9fc0 6b17 b43f 47c7 d63f df04 613f
00000070: 14c7 9b3f 17fc 2a40 0e48 d93f a88a fc3f
00000080: 201a 7d3f f686 ae3f bfc2 b83e 0698 fcbf
00000090: 2293 36bd 43e6 8c3f bdf8 a13e 123e 13c0
000000a0: 9471 87c0 6d8c 8dc0 62f9 c9c0 28f4 bfc0
000000b0: 695e 33c0 347c 37bf b282 a4bf ca3a f1be
000000c0: f444 0440 aab5 683f d8b8 8a3f 4982 813f
000000d0: eb40 42bf 6976 22bf 9fa7 9bc0 33ba 4a3f
000000e0: e731 ab3f 9264 863f a795 9fc0 3db4 64c0
000000f0: 2643 933f 8732 ba3f d420 f8be a548 06c1
00000100: 4370 0b3f 17e9 bb3f 6029 993f 0663 73c0
00000110: fab1 9ec0 02d9 3440 1f12 98bf b82e ecbf
00000120: 3b16 99c0 1b7f b6bf 62f5 e93f d8d9 d63f
00000130: 03e4 df3f ce02 c93e 78ce 843f 689f a63e
00000140: dc9a b03f 6d39 f03f 4849 91bf 16a6 ffbd
00000150: 311a 1140 9af7 4f40 87ce b33e 4727 42c0
00000160: 79f2 8740 a6ff b13f e648 2c40 9e66 95bf
00000170: 372b 993f 7c32 8e40 b81f 7fc0 f0f7 c43f
00000180: 55f3 873e 37fe ce3e 88a6 ca3f c7a9 8dc0
00000190: c877 1c3e ff5d e63d e9ef c7bd e4a9 18c0
000001a0: 605f 85c0 2b6a c63d 0727 593f 2267 8d40
000001b0: 5fb9 32c0 9090 98c0 0f14 55be 6572 a0be
000001c0: aefc 8e40 148f ac40 2b6c ba3f 490b ecbf
000001d0: 5b41 85bf 26bb b8be 1b5c 913f 9533 da3f
000001e0: 9b1a f5bf 4d86 01bf 119e d1bf 71ed 243f
000001f0: d473 303f ffba 563f 6df1 dcbf ecb5 29c0
00000200: 4023 d6bf ac69 a33e 2f6d 99bf 317f 83c0
00000210: c14a 35bf 0912 a140 086b 0a40 863d 83bf
00000220: 916e a4be a99b d940 7463 5640 1010 16c0
00000230: 262f bf3d 5369 0040 c648 0840 5c5c 2fc0
00000240: 79ca 00c0 e7c0 923e 3a60 263f c7d3 50bf
00000250: 8b20 18bf bf95 8abd
1.8230293 0.22903982 -1.1654985 -1.3819435 -1.3495222 1.6540681 0.4700537 0.9967621
2.2116396 2.0771596 -0.23741318 0.6231266 2.1642518 2.521161 2.3680165 -2.5243394
-1.2350934 -0.22818696 0.37613636 -0.541348 -2.2835429 -3.8974693 -5.6380563 -6.594957
-4.994564 1.4069647 1.6779565 0.8789806 1.2170129 2.6716363 1.6975114 1.9729815
0.9886799 1.3634937 0.3608608 -1.9733894 -0.04457391 1.100777 0.31635085 -2.3006635
-4.2326145 -4.423392 -6.311692 -5.998554 -2.8026373 -0.71673894 -1.2852385 -0.47115165
2.0667086 0.909022 1.083766 1.0117885 -0.75880307 -0.6346193 -4.8642116 0.7919037
1.3374604 1.0499442 -4.987018 -3.5735009 1.1504867 1.454667 -0.48462546 -8.3927355
0.5446817 1.4680508 1.1965752 -3.802919 -4.9592257 2.825745 -1.188053 -1.8451757
-4.7839637 -1.425754 1.827801 1.6785231 1.7491459 0.39259952 1.0375509 0.32543492
1.3797259 1.8767525 -1.1350489 -0.1248285 2.2672236 3.2494874 0.35118505 -3.0336473
4.2483487 1.3906143 2.6919494 -1.1671941 1.1966313 4.4436626 -3.986311 1.5388165
0.26552835 0.40428326 1.5832071 -4.426975 0.15280068 0.11248397 -0.09762556 -2.3853693
-4.1678925 0.09688219 0.84825176 4.4188395 -2.7925642 -4.767647 -0.20808433 -0.31337276
4.4683447 5.3924656 1.456426 -1.8440944 -1.041057 -0.36080283 1.1356233 1.7046992
-1.9148744 -0.5059555 -1.6376363 0.64424807 0.6892674 0.83879083 -1.7261177 -2.6517286
-1.6729507 0.3191656 -1.1986445 -4.1092763 -0.7081719 5.0334516 2.1627827 -1.025315
-0.32115605 6.8002515 3.3498201 -2.3447304 0.09335165 2.0064285 2.1294417 -2.7400122
-2.012358 0.28662798 0.6499058 -0.81573147 -0.59424657 -0.06766843

bias f4 [6]
00000000: d96d a1bc 7ba8 26be a5ad fa3d ddb1 e23d
00000010: 8a2c 5fbe ea68 cc3c
-0.0197057 -0.16275208 0.12240151 0.11069081 -0.21794334 0.02495237
