src/weights/213-1.pth (torch, 1639 bytes, 2 tensors)

weight f4 [6, 1, 5, 5]
00000000: cf86 f03f a2e9 ecbd a2d8 cebf f8af ecbf
00000010: 202a 07c0 8336 cb3f 5a99 aebc 71c6 1b3f
00000020: d284 ec3f b041 da3f 0bca 13bf 5554 b93e
00000030: 8fa3 1340 ab28 2640 491f 2540 352b 2cc0
00000040: f24c a9bf b9f2 b3be 38cb a73e 60cd 10bf
00000050: 49c5 e9bf 928b 7fc0 f3a9 c4c0 39c9 e8c0
00000060: a92d bbc0 32a0 993f 7064 e73f 2905 6e3f
00000070: ff9a 373f dda5 1a40 6925 b93f c05a e03f
00000080: 78ea 973f b4ae 953f 9933 213e 3431 02c0
00000090: f06c 023e 5c7e 883f ce3f c4be cfc7 24c0
000000a0: 3f7f 8cc0 c20e 9ac0 7b2a eac0 717a d9c0
000000b0: 90e7 4ec0 a760 89bf d086 0bc0 3980 6cbf
000000c0: ec44 d33f d132 ad3e ed56 953f 8a7c 873f
000000d0: 15f8 9ebf 6c9f aabf 02f2 b8c0 97ee 8e3f
000000e0: 4339 d23f 53f6 793f 6030 98c0 1bd5 5fc0
000000f0: 1ae5 a33f da8b eb3f 0188 28bf 23fe 0cc1
00000100: 12d4 8c3d 6fad a23f 447b 0c3f d812 94c0
00000110: b7e8 b5c0 c43c 1c40 5f34 96bf 5cca 10c0
00000120: 443b 8bc0 9407 7bbf a32a 1740 9b87 2840
00000130: 772e f13f a965 cd3d dcd3 a43f caf0 8e3f
00000140: e8fd 903f 1e33 f33f 1fa9 a7bf a56d 0d3f
00000150: 5518 4e40 dd95 5040 5593 c43c a919 45c0
00000160: fca6 8d40 309d b43f 3671 1940 4a46 99bf
00000170: 60f0 443f 4b49 9140 8c39 89c0 7f7b cd3f
00000180: 699e 213e 006f dd3d b588 df3f 0d12 91c0
00000190: 4629 99be e9b5 a13e fbe2 a63e d6d0 28c0
000001a0: a91b 83c0 f5dd 32bf 4de2 433f bc80 9b40
000001b0: c21f 40c0 aa52 83c0 3647 cfbe bf8f b6be
000001c0: da12 9c40 1fa6 be40 2b8b 0d40 f8dc bcbf
000001d0: 039a cdbf 3aeb 82bf 2c2f 373f e0ad f73f
000001e0: ad51 f2bf 29d3 5fbf 81f0 e0bf 513e 423f
000001f0: de63 863f 820b 4f3f 410e 05c0 948f 26c0
00000200: 7876 c7bf cdc6 793d 7e7d a5bf 0c3c 91c0
00000210: 252b 27bf 0fb0 a840 3481 ff3f efc5 bbbf
00000220: cbcf 33bf d61c e540 de95 4a40 9c96 2dc0
00000230: b7a2 543e c51a 1440 02af ff3f 798a 40c0
00000240: 469a 1ec0 fd15 9a3e 5f30 d93e 47b4 74bf
00000250: 932b 47bf b220 d3be
1.879114 -0.115679994 -1.6159861 -1.8491201 -2.111946 1.5876011 -0.021313358 0.6084967
1.8478034 1.7051296 -0.5773017 0.36197153 2.3068578 2.5962322 2.5800345 -2.6901371
-1.3226607 -0.3514612 0.3277223 -0.5656338 -1.8263332 -3.9928937 -6.1457458 -7.2745633
-5.8493237 1.2002013 1.8077526 0.92976624 0.7172088 2.4163735 1.4464542 1.7527695
1.1868429 1.169394 0.15742339 -2.0342531 0.12736869 1.0663562 -0.3832993 -2.5746953
-4.390533 -4.8143015 -7.3176856 -6.7961965 -3.2328835 -1.0732621 -2.1801033 -0.9238315
1.6505408 0.33827832 1.1667153 1.0584881 -1.2419459 -1.3329902 -5.779542 1.1166562
1.6423725 0.97641486 -4.755905 -3.497382 1.2804291 1.8402054 -0.65832525 -8.812045
0.06876387 1.2709178 0.5487559 -4.6273003 -5.6846576 2.4412088 -1.1734732 -2.262351
-4.3509846 -0.9805844 2.3619773 2.6332767 1.8842305 0.10029156 1.2877154 1.1167233
1.1327486 1.8999975 -1.3098487 0.5524543 3.220235 3.259147 0.023996035 -3.0796912
4.426634 1.411047 2.3975348 -1.1974576 0.76929283 4.540197 -4.288275 1.6053313
0.15783085 0.10812187 1.7463595 -4.5334535 -0.29914302 0.315841 0.32595047 -2.6377463
-4.0971265 -0.6986993 0.7651718 4.8594646 -3.0019383 -4.103841 -0.40484017 -0.35656545
4.877301 5.9577785 2.2116191 -1.4754934 -1.6062626 -1.0228035 0.71556354 1.9349937
-1.8931175 -0.8743158 -1.7573396 0.7587634 1.0499227 0.80876935 -2.078995 -2.6025133
-1.5583029 0.060980607 -1.2928922 -4.53858 -0.6530021 5.2714915 1.9961305 -1.466978
-0.7023894 7.15977 3.1653972 -2.7123175 0.20765196 2.314134 1.9975283 -3.0084517
-2.478166 0.300949 0.42419717 -0.9558758 -0.77800864 -0.41235882

bias f4 [6]
00000000: 5fc2 d6bc 4b4a 24be 2358 e93d 99bb df3d
00000010: 7494 60be 6579 883c
-0.02621573 -0.16043966 0.11393764 0.10924453 -0.2193163 0.016659448
