src/weights/432-1.pth (torch, 1639 bytes, 2 tensors)

weight f4 [6, 1, 5, 5]
000000 85 ad 11 3f 55 0d 8c 3c ba e8 3a be bf 6a 40 bf
       0.56905395 0.017096201 -0.1825284 -0.7516288
000010 f2 a2 75 bf 25 63 de 3e a8 af f8 bc 51 f1 ae 3e
       -0.9595176 0.43435016 -0.030357197 0.34168485
000020 bb b0 66 3f e2 aa fe 3e f4 4a 11 bf 97 8f 90 bc
       0.9011342 0.49739748 -0.56754994 -0.017646594
000030 d8 b1 61 3f a4 12 c8 3f c4 db b7 3f b2 78 51 bf
       0.88161993 1.5630689 1.4363942 -0.8182479
000040 a3 40 05 bf 2a 11 08 bf ad 1a c9 be f9 a5 ac be
       -0.5205175 -0.5315119 -0.39278165 -0.33720377
000050 b0 81 41 bf 1e c0 f9 bf 3b 45 41 c0 69 1f 39 c0
       -0.7558851 -1.9511755 -3.0198505 -2.8925421
000060 d7 44 1b c0 82 1a da 3e b7 5e b9 3e 6a 7a 19 3f
       -2.4260767 0.4259835 0.36205074 0.59952414
000070 18 46 69 3f 40 12 a8 3f e1 2e 52 3f 69 d7 4e 3f
       0.9112258 1.313057 0.8210278 0.8079744
000080 f5 25 29 3f 9b d3 5d 3f 52 9d 65 3e a7 35 44 bf
       0.6607354 0.8665101 0.22423294 -0.76644367
000090 96 9b 50 be d7 b6 90 bd 27 06 bb be 40 db c9 bf
       -0.20371851 -0.07066124 -0.3652813 -1.5770035
0000a0 a0 72 f7 bf 2c 48 0d c0 6c cb 28 c0 ae d6 3a c0
       -1.9331856 -2.20753 -2.637416 -2.919353
0000b0 5d f6 d3 bf 77 7a e7 bd dd f8 fe be 68 6d 54 bf
       -1.6559559 -0.11302655 -0.49799243 -0.8297944
0000c0 a1 8d 6c 3e 22 ef 9a 3e e8 7f 57 3f ab c5 23 3f
       0.23100902 0.3026057 0.84179544 0.6397349
0000d0 4a 72 a8 be 9b 0e 74 bf ab f6 34 c0 c0 99 f1 3e
       -0.32899696 -0.95334786 -2.8275554 0.47187614
0000e0 e3 b4 d5 3e da fe c0 3e 22 7e 16 c0 49 f0 9e bf
       0.41739568 0.37694436 -2.3514485 -1.2417079
0000f0 c1 33 33 3f 4a eb 02 3f bd 95 fe be 5f 3b 89 c0
       0.70000845 0.5114027 -0.49723616 -4.2884974
000100 e8 8a 10 3d 77 d1 16 3f 16 e3 69 bd aa 54 d3 bf
       0.03528872 0.5891337 -0.05710133 -1.6510212
000110 52 f8 27 c0 ae 36 b7 3f 0f 5a 87 bd 33 eb d7 be
       -2.6245313 1.4313562 -0.06608974 -0.4217163
000120 ea 85 05 c0 dc 49 65 bf 6b 7e bf 3f d7 b5 18 3f
       -2.0862985 -0.89565825 1.4960455 0.59652466
000130 f9 71 bf 3e 6d 00 05 3f 65 eb 0a 3f 11 1e 9c 3e
       0.37391642 0.51953775 0.54265434 0.3049169
000140 63 75 bb 3e fb 62 b2 3f d1 d5 f0 be a1 58 05 be
       0.36612996 1.3936456 -0.4703813 -0.1302209
000150 a3 9b 90 3f b3 7f ea 3f a4 97 38 3f 17 1c 8e bf
       1.1297497 1.8320221 0.72106385 -1.1102322
000160 a6 3e ea 3f 5a 45 d0 3e 13 75 78 3f 54 5d 0f bf
       1.8300369 0.4067791 0.9705364 -0.5600178
000170 f1 e0 35 be 35 a4 01 40 00 66 ea bf 25 69 82 3f
       -0.1776159 2.0256474 -1.8312378 1.0188338
000180 89 0f d7 bd be 58 f5 bc 8d 6b 76 3f 37 db ed bf
       -0.1050101 -0.029949542 0.9625786 -1.8582524
000190 91 24 cf 3c 3d 66 bb 3e 76 9b d9 3d b6 48 ab bf
       0.02528599 0.3660144 0.10625355 -1.3381565
0001a0 08 70 17 c0 de b2 bf be 39 34 60 3f 62 dc 04 40
       -2.3662128 -0.37441152 0.87579685 2.075951
0001b0 c2 aa 8c bf 4e 85 08 c0 6a 45 75 bf 2f 6d 10 bf
       -1.0989611 -2.1331363 -0.9580904 -0.564166
0001c0 48 ab 20 40 11 f4 1b 40 ed eb e7 3e 34 73 5b bf
       2.5104542 2.4367716 0.45297185 -0.8572266
0001d0 21 06 e4 be c5 29 25 3f bb 12 d8 3e c7 1e fe 3e
       -0.44535926 0.6451686 0.4220179 0.49632856
0001e0 66 15 c7 be 3c f9 ee be a4 ca 67 bf db f0 48 3e
       -0.38883513 -0.46674526 -0.9054358 0.19623129
0001f0 0a b9 a9 3e 3f f3 36 3f bb 04 dd be a6 89 7b bf
       0.33148986 0.71464914 -0.43167672 -0.9825691
000200 d0 41 1a bf 54 85 c1 3e b0 6d 8a bf 31 8b e2 bf
       -0.6025667 0.37797034 -1.0814724 -1.7698728
000210 10 8f b7 be a7 18 1f 40 5d 84 81 3f 37 5b 75 bf
       -0.35851336 2.4858797 1.0118519 -0.9584231
000220 3f 88 93 be a6 36 54 40 e3 a9 c1 3f ea 7d 8d bf
       -0.28814885 3.3158355 1.512997 -1.1054051
000230 c1 ad 97 3e 6f 7b 3c 3f 97 4d a2 3f 96 eb b0 bf
       0.2962475 0.73625845 1.2679929 -1.3821895
000240 ba 56 9f bf cd 51 26 3e bb 69 c0 3d 7f d1 ce be
       -1.2448342 0.16242142 0.093951665 -0.40394208
000250 b9 c2 0e bf 44 ae 8b be
       -0.55765873 -0.27281392

bias f4 [6]
000000 28 ab 2c bd 54 20 33 be 24 42 03 3e 2d 7a ea 3d
       -0.042155415 -0.17492801 0.128182 0.114490844
000010 ed 99 5b be dd 8e 01 3d
       -0.21445437 0.031630386
